…
Loading vocab...
Using features: None
Total vocabulary size in the whole dataset: 4
['-', 'O', 'S', 'X', '0']
loading entity-gird for pos and neg documents...
.....................................
Num of traing pairs: 23744
Num of dev pairs: 2678
Num of test pairs: 20411
Num of permutation in train: 20
The maximum in length for CNN: 14000
.....................................
_________________________________________________________________
Layer (type)                 Output Shape              Param #   
=================================================================
sent_input (InputLayer)      (None, 14000)             0         
_________________________________________________________________
embedding_1 (Embedding)      (None, 14000, 100)        500       
_________________________________________________________________
conv1d_1 (Conv1D)            (None, 13996, 150)        75150     
_________________________________________________________________
max_pooling1d_1 (MaxPooling1 (None, 2332, 150)         0         
_________________________________________________________________
dropout_1 (Dropout)          (None, 2332, 150)         0         
_________________________________________________________________
flatten_1 (Flatten)          (None, 349800)            0         
_________________________________________________________________
dropout_2 (Dropout)          (None, 349800)            0         
_________________________________________________________________
dense_1 (Dense)              (None, 1)                 349801    
=================================================================
Total params: 425,451
Trainable params: 425,451
Non-trainable params: 0
_________________________________________________________________
None
------------------------------------------------
Model name: saved_models/Ext_CNN.20_0.5_100_14000_5_150_6_64_F0
Training model...
Train on 23744 samples, validate on 2678 samples
Epoch 1/1
…
